…
Average actions of items: 15.606758686339838
The number of inters: 163949
The sparsity of the dataset: 99.90643198718531%
Remain Fields: ['user_id', 'item_id', 'rating', 'timestamp']
Fri 12 Sep 2025 14:00:43 INFO  [Training]: train_batch_size = [2048] train_neg_sample_args: [{'distribution': 'none', 'sample_num': 'none', 'alpha': 'none', 'dynamic': False, 'candidate_num': 0}]
Fri 12 Sep 2025 14:00:43 INFO  [Evaluation]: eval_batch_size = [512] eval_args: [{'split': {'RS': [0.8, 0.1, 0.1]}, 'order': 'TO', 'group_by': 'user', 'mode': {'valid': 'full', 'test': 'full'}}]
Fri 12 Sep 2025 14:00:43 INFO  MuPP(
  (item_embedding): Embedding(10506, 256, padding_idx=0)
  (position_embedding): Embedding(50, 256)
  (trm_encoder): TransformerEncoder(
    (layer): ModuleList(
      (0-1): 2 x TransformerLayer(
        (multi_head_attention): MultiHeadAttention(
          (query): Linear(in_features=256, out_features=256, bias=True)
          (key): Linear(in_features=256, out_features=256, bias=True)
          (value): Linear(in_features=256, out_features=256, bias=True)
          (softmax): Softmax(dim=-1)
          (attn_dropout): Dropout(p=0.3, inplace=False)
          (dense): Linear(in_features=256, out_features=256, bias=True)
          (LayerNorm): LayerNorm((256,), eps=1e-12, elementwise_affine=True)
          (out_dropout): Dropout(p=0.3, inplace=False)
        )
        (feed_forward): FeedForward(
          (dense_1): Linear(in_features=256, out_features=256, bias=True)
          (dense_2): Linear(in_features=256, out_features=256, bias=True)
          (LayerNorm): LayerNorm((256,), eps=1e-12, elementwise_affine=True)
          (dropout): Dropout(p=0.3, inplace=False)
        )
      )
    )
  )
  (representation_layer): ModuleList(
    (0-1): 2 x Linear(in_features=256, out_features=256, bias=True)
  )
  (LayerNorm): LayerNorm((256,), eps=1e-12, elementwise_affine=True)
  (dropout): Dropout(p=0.3, inplace=False)
  (loss_fct): CrossEntropyLoss()
)
Trainable parameters: 3625984
Fri 12 Sep 2025 14:00:43 INFO  FLOPs: 46101456.0
Fri 12 Sep 2025 14:04:36 INFO  epoch 0 training [time: 232.39s, train loss: 482.4729]
Fri 12 Sep 2025 14:08:29 INFO  epoch 1 training [time: 233.15s, train loss: 471.1779]
Fri 12 Sep 2025 14:08:37 INFO  epoch 1 evaluating [time: 7.34s, valid_score: 0.005700]
…
